digit/model/lenet.pth (torch, 250175 bytes, 10 tensors)

layer1.weight f4 [6, 1, 5, 5]
0.15349133 0.010880913 0.056117695 0.10760086 -0.20511425 -0.09270842 0.12791681 -0.03737934
0.14989026 -0.12395562 -0.16474424 -0.045918025 0.015779488 0.14094058 0.20311688 -0.13839483
0.004933755 0.17231344 0.027274812 -0.072852954 0.10698066 -0.12299707 0.18744911 0.045092925
-0.015499491 0.07929949 0.21056606 0.17366648 0.13789505 0.21468675 0.2810877 0.2784364
-0.12957574 -0.13743097 0.14058879 -0.012806068 0.06922142 0.13841233 -0.101630375 -0.22527993
0.22512543 -0.1637684 -0.18500325 0.1026815 0.13619938 0.07651485 -0.15132529 -0.2908866
-0.22686462 -0.064796716 -0.02268258 -0.14224675 -0.08758061 0.12955712 0.18987891 0.10743667
0.24179064 -0.07460787 0.17630124 -0.04638429 0.0930294 0.011284931 0.24984287 -0.0544833
0.21781279 -0.1622793 0.08823076 -0.16184996 0.059221268 -0.17114195 -0.03307868 -0.20889163
-0.074041136 0.05130031 -0.07665541 0.21263352 -0.09503832 0.24577147 0.025806626 -0.057778087
0.15997341 0.27977458 -0.037194245 0.15943745 -0.14530596 0.061372623 -0.10653205 0.1939557
0.112280145 0.10039413 -0.1395411 -0.044083953 0.10099555 0.19430725 -0.0057338946 -0.21607216
-0.040375568 -0.22840098 0.036746122 -0.0193261 -0.07126194 -0.088493615 -0.06265225 -0.07574895
0.034969978 -0.20839168 -0.0783087 -0.08341694 0.21256816 0.04378768 -0.061977938 -0.24323016
0.033752885 0.1422129 0.15657681 -0.12195749 -0.23901306 -0.17810355 -0.00037315185 0.22018152
0.22704645 -0.095277764 -0.25796255 -0.17599836 0.09040747 -0.11981184 0.0278622 0.15025616
0.013580321 0.0031121552 -0.20681207 -0.11076756 -0.04892495 -0.13242647 0.18785943 0.14147696
-0.1512255 0.23112454 0.021258023 0.24911971 -0.07384921 -0.15223661 0.19851881 0.20348932
0.2486312 -0.09020442 -0.16402648 -0.15711887 0.23407689 0.08709383
00000000: d52c 1d3e db45 323c abdb 653d d75d dc3d
00000010: 7809 52be e9dd bdbd a0fc 023e 141b 19bd
00000020: d57c 193e 72dc fdbd b7b2 28be 8a14 3cbd
00000030: fc43 813c ba52 103e dffd 4f3e 60b7 0dbe
00000040: 56ab a13b ef72 303e 6d6f df3c ee33 95bd
00000050: ad18 db3d e3e5 fbbd a9f2 3f3e 5cb3 383d
00000060: 94f1 7dbc c567 a23d a19e 573e a0d5 313e
00000070: 5c34 0d3e d8d6 5b3e baea 8f3e 378f 8e3e
00000080: 81af 04be b4ba 0cbe 82f6 0f3e 8bd0 51bc
00000090: f6c3 8d3d f6bb 0d3e 9623 d0bd c8af 66be
000000a0: 4887 663e e7b2 27be 7e71 3dbe ae4a d23d
000000b0: da77 0b3e d1b3 9c3d 04f5 1abe 17ef 94be
000000c0: 334f 68be 24b4 84bd d1d0 b9bc 22a9 11be
000000d0: 765d b3bd 9faa 043e 9e6f 423e c207 dc3d
000000e0: f797 773e 03cc 98bd 5088 343e 74fd 3dbd
000000f0: 3386 be3d 6ee4 383c cfd6 7f3e e129 5fbd
00000100: 510a 5f3e 8b2c 26be 54b2 b43d ffbb 25be
00000110: 0092 723d d63f 2fbe 837d 07bd b0e7 55be
00000120: e1a2 97bd 4620 523d 83fd 9cbd 9abc 593e
00000130: 73a3 c2bd 84ab 7b3e 6b68 d33c b7a8 6cbd
00000140: 12d0 233e 9d3e 8f3e fe58 18bd 9243 233e
00000150: 16cb 14be dc61 7b3d 7a2d dabd 539c 463e
00000160: 22f3 e53d 709b cd3d dde3 0ebe 6091 34bd
00000170: c1d6 ce3d 7bf8 463e 65e3 bbbb 0542 5dbe
00000180: da60 25bd f2e1 69be 1a83 163d c551 9ebc
00000190: c8f1 91bd 243c b5bd d34f 80bd 4422 9bbd
000001a0: ae3c 0f3d a164 55be 5060 a0bd 80d6 aabd
000001b0: 78ab 593e b65a 333d 94dc 7dbd 5411 79be
000001c0: 7740 0a3d 42a0 113e ac55 203e d9c4 f9bd
000001d0: d7bf 74be c760 36be 98a3 c3b9 4477 613e
000001e0: dd7e 683e fd20 c3bd ab13 84be ea38 34be
000001f0: 8d27 b93d e95f f5bd 453f e43c c0dc 193e
00000200: ff7f 5e3c 4df5 4b3b 8bc6 53be 1ada e2bd
00000210: 8765 48bd ce9a 07be 395e 403e 56df 103e
00000220: dcda 1abe e9ab 6c3e 4e25 ae3c 3d19 7f3e
00000230: 413e 97bd eae3 1bbe 8448 4b3e 815f 503e
00000240: 2d99 7e3e 18bd b8bd 8ff6 27be c5e3 20be
00000250: dab1 6f3e 405e b23d

layer1.bias f4 [6]
0.14322843 -0.07371594 0.20613949 0.00535778 0.069255464 0.017603895
00000000: 79aa 123e 62f8 96bd 3b16 533e 5190 af3b
00000010: cfd5 8d3d 0b36 903c

layer2.weight f4 [16, 6, 5, 5]
0.0026435836 0.088656284 0.047367547 -0.059292376 -0.0034495243 -0.049852077 0.013918764 0.060226277
0.031559847 0.022808436 -0.06851677 -0.10366945 -0.06690712 0.0004250438 -0.021102332 0.05442088
0.08033203 -0.0044630356 -0.11202748 0.0165543 0.066818245 0.07481263 -0.044352047 0.04918574
-0.033804547 0.08523231 0.07709189 0.005201135 0.04093927 -0.063960195 -0.08567719 -0.04475633
-0.050009467 0.072619475 0.061358634 -0.05130872 -0.055487297 -0.072739325 -0.018470455 -0.015604501
0.07422565 -0.04632399 0.046823043 -0.08090805 -0.07304307 -0.0021566278 0.07641842 0.07826272
0.008501723 -0.0064291633 -0.0051755547 -0.043707583 0.06680446 0.06254031 -0.028014362 -0.08104339
-0.0748757 0.030228082 0.02584371 -0.005576062 0.048701726 -0.046489418 0.02035462 0.026724217
0.021146469 0.098769285 -0.07717618 0.06382637 -0.0877356 -0.054135494 0.036023233 0.00060592114
-0.044983517 0.054411314 0.025925057 -0.026195813 0.09866685 -0.031307634 0.06968672 0.09085051
-0.10325502 -0.024812602 0.060162548 0.112848416 0.03993982 0.039271362 0.023365507 -0.100540146
-0.0046063582 -0.027554436 0.098979965 0.13379256 -0.003649076 -0.049486075 -0.06049 0.09432931
0.012291064 0.09836271 0.007908171 -0.021561164 -0.031424012 0.034346726 -0.029903334 -0.0039166436
0.06462712 -0.09919377 0.046005335 0.0633974 0.034006607 0.019824099 -0.033335906 0.008117058
-0.027057659 0.0063009467 0.09464939 -0.05216459 0.005589393 -0.012464396 0.06539688 0.10385147
0.03783099 -0.06800698 0.007881921 -0.027163755 -0.08947361 -0.06457882 0.024661316 0.06528121
0.027099801 0.082059704 -0.023033967 -0.040688623 -0.006873002 -0.026258593 0.10045215 0.005631946
-0.070908494 -0.088271394 -0.060673412 0.09234377 -0.08801504 0.004741364 0.08343863 -0.08781715
-0.043332655 0.048122287 0.068675816 0.057387896 -0.019001106 0.0483018 0.054255962 0.067018695
0.043941744 0.04035621 -0.015914006 0.028382026 0.010765922 0.02050209 -0.00041122994 0.040148053
0.035334744 -0.05438584 -0.08036407 -0.08171899 0.06703985 -0.0910705 -0.09671539 -0.06137232
-0.065962665 0.03727204 -0.06642056 0.024861827 0.05849576 0.053680748 -0.038697794 0.04134477
-0.07156249 0.0040464476 -0.034276653 -0.0086845355 -0.053591326 0.061889246 -0.018267937 0.014777244
-0.03751601 0.099106975 0.0436519 0.02167399 0.11523509 -0.041841302 0.10055487 0.018700376
0.06604176 0.01726908 -0.020697255 0.0742492 0.0056865825 0.002460127 -0.10783683 -0.0037749624
-0.0064594583 -0.0026057614 0.027857427 -0.03461482 0.034722876 0.022688339 0.021510659 0.06635046
0.10657288 0.03560602 -0.03742204 0.025282428 0.07629591 0.043954182 0.03382151 -0.019433007
-0.028000414 0.037102096 -0.025372747 0.015375789 0.05582761 -0.12003295 -0.1252841 0.055105418
0.10600474 -0.0999644 -0.061998773 -0.002412125 -0.020547561 0.10149916 -0.04584673 -0.025656609
0.0034971004 -0.022678215 0.114543065 -0.029403808 -0.016920906 0.06492079 -0.05125953 0.042263385
0.024969952 -0.049966447 0.051189095 -0.059820563 0.0051004062 -0.026695346 -0.0024133448 -0.093498714
-0.07917826 -0.07709301 0.090589374 0.030457068 0.05775275 -0.036074623 0.056851372 -0.014428795
00000000: f93f 2d3b 6d91 b53d 7904 423d 90dc 72bd
00000010: 6a11 62bb b131 4cbd 870b 643c d4af 763d
00000020: e644 013d c2d8 ba3c 8552 8cbd a650 d4bd
00000030: 9a06 89bd 6ad8 de39 ccde acbc 6ee8 5e3d
00000040: 1f85 a43d a83e 92bb aa6e e5bd e29c 873c
00000050: 01d8 883d 5d37 993d 7eaa 35bd fd76 493d
00000060: a376 0abd 478e ae3d 5ae2 9d3d 486e aa3b
00000070: f0af 273d 90fd 82bd 8677 afbd 6a52 37bd
00000080: bad6 4cbd 85b9 943d 3153 7b3d 1829 52bd
00000090: a646 63bd 5bf8 94bd 5a4f 97bc 05aa 7fbc
000000a0: 9e03 983d 39be 3dbd 85c9 3f3d 1fb3 a5bd
000000b0: 9b97 95bd 3656 0dbb 4381 9c3d 3448 a03d
000000c0: d04a 0b3c bbab d2bb b397 a9bb b906 33bd
000000d0: c7d0 883d 2215 803d 607e e5bc 14fa a5bd
000000e0: 6e58 99bd e2a0 f73c 30b6 d33c 66b7 b6bb
000000f0: 767b 473d b06b 3ebd bbbe a63c bfec da3c
00000100: 5c3b ad3c 8d47 ca3d 8c0e 9ebd 66b7 823d
00000110: b9ae b3bd 2ebd 5dbd 198d 133d aed6 1e3a
00000120: a340 38bd 66de 5e3d c960 d43c 9a98 d6bc
00000130: d811 ca3d 6f3c 00bd e9b7 8e3d d50f ba3d
00000140: 5e77 d3bd cc43 cbbc 016d 763d 121d e73d
00000150: f097 233d 02db 203d 0569 bf3c fee7 cdbd
00000160: eff0 96bb d7b9 e1bc 02b6 ca3d eb00 093e
00000170: 5625 6fbb e9b1 4abd 5dc4 77bd ba2f c13d
00000180: 7560 493c 6372 c93d 4691 013c 0aa1 b0bc
00000190: 77b6 00bd 27af 0c3d d6f7 f4bc 3057 80bb
000001a0: 395b 843d 1a26 cbbd 1770 3c3d 7fd6 813d
000001b0: 834a 0b3d 2666 a23c 3b8b 08bd 69fd 043c
000001c0: 06a8 ddbc 2c78 ce3b 8ad7 c13d 8aaa 55bd
000001d0: 3a27 b73b 7737 4cbc cdee 853d 14b0 d43d
000001e0: abf4 1a3d 3e47 8bbd 2c23 013c 8686 debc
000001f0: f13d b7bd e641 84bd 8706 ca3c 28b2 853d
00000200: 6700 de3c eb0e a83d bbb1 bcbc 1da9 26bd
00000210: eb36 e1bb 431c d7bc dbb9 cd3d 308c b83b
00000220: 7938 91bd a2c7 b4bd af84 78bd bb1e bd3d
00000230: 3b41 b4bd 725d 9b3b dfe1 aa3d 7ad9 b3bd
00000240: 957d 31bd e01b 453d e8a5 8c3d 920f 6b3d
00000250: 35a8 9bbc 1cd8 453d 803b 5e3d 1941 893d
00000260: 42fc 333d 8e4c 253d 175e 82bc 6c81 e83c
00000270: 8d63 303c 00f4 a73c 599a d7b9 4972 243d
00000280: 2abb 103d b0c3 5ebd eb95 a4bd 495c a7bd
00000290: 304c 893d 2c83 babd b812 c6bd 8b61 7bbd
000002a0: 6f17 87bd 91aa 183d 8107 88bd 08ab cb3c
000002b0: 4099 6f3d 58e0 5b3d 9481 1ebd 2259 293d
000002c0: 5b8f 92bd 1098 843b ad65 0cbd 9549 0ebc
000002d0: 9482 5bbd 947f 7d3d a4a6 95bc 411c 723c
000002e0: 63aa 19bd 99f8 ca3d 56cc 323d a78d b13c
000002f0: 6000 ec3d c961 2bbd b6ef cd3d 8831 993c
00000300: e740 873d e377 8d3c 4a8d a9bc f70f 983d
00000310: 8356 ba3b 153a 213b 8ed9 dcbd 5c65 77bb
00000320: dda9 d3bb 6cc5 2abb 4235 e43c 45c8 0dbd
00000330: 9339 0e3d e5dc b93c 1f37 b03c c0e2 873d
00000340: e242 da3d 9ed7 113d da47 19bd 181d cf3c
00000350: 0841 9c3d 4d09 343d 6c88 0a3d f831 9fbc
00000360: 2061 e5bc 5ef8 173d 82da cfbc bcea 7b3c
00000370: 7eab 643d d6d3 f5bd 7a4a 00be 38b6 613d
00000380: 0319 d93d 23ba ccbd 6df2 7dbd be14 1ebb
00000390: 5c53 a8bc cbde cf3d c8c9 3bbd cf2d d2bc
000003a0: 9c2f 653b aac7 b9bc 8e95 ea3d 41e0 f0bc
000003b0: b69d 8abc 31f5 843d 83f5 51bd 5f1c 2d3d
000003c0: c98d cc3c 9ea9 4cbd a8ab 513d 6806 75bd
000003d0: 4f21 a73b 33b0 dabc 3529 1ebb 417c bfbd
000003e0: 3628 a2bd f1e2 9dbd ec86 b93d 1a81 f93c
000003f0: 268e 6c3d fcc2 13bd fcdc 683d c166 6cbc

layer2.bias f4 [16]
-0.013672963 0.055464935 0.0406454 -0.018945843 0.07153843 0.031355083 0.0035088407 -0.08464949
0.09660086 -0.029299028 0.022442373 -0.06725159 0.06742676 0.048411734 0.08419911 0.043521166
00000000: 9004 60bc 332f 633d ca7b 263d 5034 9bbc
00000010: be82 923d 306e 003d 94f4 653b b65c adbd
00000020: acd6 c53d 8404 f0bc 11d9 b73c 34bb 89bd
00000030: 0b17 8a3d 624b 463d 9570 ac3d 4043 323d

layer3.weight f4 [120, 16, 5, 5]
0.015565847 0.07779104 0.0322313 -0.02743351 0.034305215 0.023195202 0.0054041655 -0.04045243
0.03285369 -0.05495779 -0.04864771 -0.03636955 0.030304685 -0.046440866 0.035301723 -0.049771063
-0.023610864 -0.044771466 0.030158421 -0.024104783 0.048283294 -0.048296504 -0.013631156 0.05165186
0.043556284 -0.01816579 -0.039568223 -0.04444374 -0.03223845 -0.03592265 -0.011404181 -0.013793009
-0.021628197 0.026694277 -0.01659616 -0.021767681 -0.01282724 0.05048221 -0.05069966 -0.030443098
-0.048447173 -0.026180165 -0.013682387 0.008147056 -0.025408575 0.051211 0.043765184 -0.04622994
-0.014807504 0.06097186 0.0018181076 0.045036007 0.025578704 0.04351271 0.005689635 0.065638445
-0.038748004 -0.02846194 -0.0351509 0.013255998 0.053243034 -0.035807025 0.011545059 0.009959545
0.033866078 0.010794921 0.04364564 0.00070316653 0.011410461 0.04358839 -0.0394029 -0.019770125
-0.02307078 -0.0057947747 0.03249424 0.024476182 -0.05809935 -0.01855933 0.01799423 -0.034347627
-0.018811973 0.027914148 -0.023616826 -0.0395772 0.04457777 0.03289224 -0.051390763 -0.030695392
0.018305464 -0.0144538665 -0.02724617 -0.05486745 -0.032250103 -0.0040713833 0.023452083 0.010521913
-0.031275164 6.13432e-05 0.038720615 0.030860683 0.038588494 -0.027428819 -0.019240987 0.027374499
0.07485731 0.018516151 0.056536626 0.004907745 0.07069254 0.027279304 -0.053245626 0.02578662
0.027531657 0.049909983 0.09327218 -0.02656286 -0.0059144646 -0.0500117 0.055744294 -0.020870607
0.06177797 -0.047921438 0.007807456 0.037539437 -0.009663833 -0.023805114 -0.0066120024 -0.03736819
0.017949153 0.051695686 0.011127695 -0.023569671 -0.0050375345 -0.034190927 -0.007983773 0.055082235
0.010662691 -0.055891383 -0.019221738 -0.013454075 -0.00938791 -0.035286956 0.04248749 -0.010928911
-0.00013004224 0.044120695 0.05401638 0.0040468825 0.009203633 0.035101537 0.01258838 -0.027832834
-0.0031285724 -0.0022311115 0.0678435 -0.034046594 -0.052771345 0.011444368 0.0247054 -0.03936987
0.036448494 0.028301585 0.014250124 -0.03769066 -0.006411914 0.039960086 0.01819935 -0.020729376
0.005455411 0.036739312 -0.043400884 -0.01257107 -0.041885737 -0.023381231 0.0038583982 0.03496504
-0.024640376 0.029680138 -0.004376706 0.011430161 0.008212776 -0.046807438 -0.013209338 0.008282435
0.017802402 -0.0009426111 -0.02600787 0.025195181 -0.04877269 -0.032197956 0.0028295866 -0.029370366
0.014854328 -0.017676203 0.024475476 -0.03033335 -0.006950136 0.04969913 0.016688062 -0.015249587
0.036926184 0.06134659 0.026106961 0.03055616 -0.02268368 -0.0139527805 -0.0063628317 -0.013668781
0.002032045 0.0088023925 0.063243136 0.01828889 -0.040764168 0.029616287 -0.03423672 0.04338932
0.017774057 -0.0020288588 0.039413895 -0.044024087 -0.023946574 -0.027188644 -0.0110455705 -0.007120879
0.040538672 -0.03232216 -0.027024314 -0.012034913 -0.015269536 0.015655307 -0.016004665 -0.0011334735
-0.05684168 -7.2795956e-05 0.07663371 -0.031038083 0.02604909 0.021777261 -0.014124295 0.036730003
0.0075187827 0.006013856 0.03447962 0.056170296 0.0023103026 -0.008612729 0.04450476 -0.0025608556
-0.025871055 0.00642315 -0.018737404 0.08553115 0.033368126 0.024280665 -0.016655399 -0.015435658
00000000: e507 7f3c e950 9f3d f804 043d 3ebc e0bc
00000010: a083 0c3d dd03 be3c 6d15 b13b 72b1 25bd
00000020: 9791 063d 6b1b 61bd d242 47bd 3df8 14bd
00000030: 8841 f83c c738 3ebd 8a98 103d bedc 4bbd
00000040: 926b c1bc 4962 37bd cb0e f73c 6577 c5bc
00000050: b4c4 453d 8ed2 45bd 3655 5fbc e790 533d
00000060: 1368 323d 6cd0 94bc 4a12 22bd a40a 36bd
00000070: 770c 04bd a123 13bd 9ad8 3abc 13fc 61bc
00000080: 9e2d b1bc f5ad da3c acf4 87bc 2352 b2bc
00000090: 5829 52bc 6fc6 4e3d 72aa 4fbd ce63 f9bc
000000a0: 8b70 46bd c977 d6bc 172c 60bc 3b7b 053c
000000b0: a525 d0bc a0c2 513d 1f43 333d 9b5b 3dbd
000000c0: 2c9b 72bc a1bd 793d 914d ee3a ad77 383d
000000d0: 6e8a d13c 623a 323d 1e70 ba3b 736d 863d
000000e0: 3ab6 1ebd 0429 e9bc 64fa 0fbd af2f 593c
000000f0: 5e15 5a3d 63aa 12bd 7d27 3d3c 5c2d 233c
00000100: 28b7 0a3d 2edd 303c c5c5 323d b554 383a
00000110: f1f2 3a3c bd89 323d ef64 21bd f5f4 a1bc
00000120: effe bcbc 18e2 bdbb ae18 053d 4682 c83c
00000130: 96f9 6dbd bc09 98bc a368 933c 19b0 0cbd
00000140: 911b 9abc 36ac e43c 1378 c1bc b41b 22bd
00000150: 2e97 363d 03ba 063d 1f7f 52bd e774 fbbc
00000160: 57f5 953c e9cf 6cbc 5c33 dfbc b1bc 60bd
00000170: af18 04bd 3d69 85bb 951e c03c 1a64 2c3c
00000180: 631a 00bd 61a5 8038 8299 1e3d 8bcf fc3c
00000190: f80e 1e3d 67b2 e0bc 469f 9dbc 7c40 e03c
000001a0: ca4e 993d 2faf 973c f392 673d 26d1 a03b
000001b0: 40c7 903d d978 df3c 1618 5abd 763e d33c
000001c0: 128a e13c 696e 4c3d 7c05 bf3d 5b9a d9bc
000001d0: 20ce c1bb 11d9 4cbd 2154 643d d6f8 aabc
000001e0: e60a 7d3d 4549 44bd b0d5 ff3b f4c2 193d
000001f0: 0e55 1ebc f102 c3bc 7fa9 d8bb 630f 19bd
00000200: 1a0a 933c dbbe 533d f050 363c 2f15 c1bc
00000210: e711 a5bb c90b 0cbd 5fce 02bc e99d 613d
00000220: 91b2 2e3c 5dee 64bd e876 9dbc 7b6e 5cbc
00000230: c0cf 19bc 0e89 10bd 5d07 2e3d 2d0f 33bc
00000240: f35b 08b9 e7b7 343d 4840 5d3d b69b 843b
00000250: d6ca 163c a1c6 0f3d 7e3f 4e3c af01 e4bc
00000260: bc08 4dbb d737 12bb 88f1 8a3d 7174 0bbd
00000270: c426 58bd 2981 3b3c fb62 ca3c 4d42 21bd
00000280: 044b 153d bad8 e73c 5a79 693c 8661 1abd
00000290: 081b d2bb 30ad 233d ce16 953c a7d0 a9bc
000002a0: 4ec3 b23b f67b 163d 20c5 31bd e4f6 4dbc
000002b0: 6190 2bbd ff89 bfbc 2edd 7c3b 8037 0f3d
000002c0: 9dda c9bc c323 f33c 796a 8fbb 9245 3b3c
000002d0: e18e 063c 28b9 3fbd fb6b 58bc 0db3 073c
000002e0: 58d6 913c 8f19 77ba 750e d5bc 2066 ce3c
000002f0: dfc5 47bd 01e2 03bd 9670 393b 1f9a f0bc
00000300: 915f 733c afcd 90bc cb80 c83c a57d f8bc
00000310: f7bd e3bb 5191 4b3d 67b5 883c 67d9 79bc
00000320: e93f 173d 9046 7b3d 44de d53c e950 fa3c
00000330: 20d3 b9bc 349a 64bc 4d7f d0bb 06f3 5fbc
00000340: 0f2c 053b e937 103c 9e85 813d 95d2 953c
00000350: 54f8 26bd db9d f23c ce3b 0cbd 00b9 313d
00000360: e69a 913c 9af6 04bb 7770 213d 9a52 34bd
00000370: 9b2b c4bc b8ba debc 7bf8 34bc 4356 e9bb
00000380: e10b 263d 3e64 04bd 1862 ddbc 152e 45bc
00000390: 132d 7abc 8f3f 803c 371c 83bc 0f91 94ba
000003a0: d2d2 68bd 08aa 98b8 22f2 9c3d 9443 febc
000003b0: e764 d53c 3a66 b23c 9669 67bc 3372 163d
000003c0: 1f60 f63b e10f c53b 813a 0d3d d312 663d
000003d0: 7268 173b 671c 0dbc a04a 363d 07d4 27bb
000003e0: 89ef d3bc 4a79 d23b 2f7f 99bc f52a af3d
000003f0: 04ad 083d 3fe8 c63c e770 88bc d8e5 7cbc

layer3.bias f4 [120]
-0.013529633 -0.013512409 -0.003592258 0.027432982 0.019093256 -0.00013175531 0.062076807 -0.03296707
-0.041959647 -0.018221872 -0.034903497 0.0010309593 -0.009601873 0.053866263 -0.0042353366 -0.01567377
0.010155799 -0.030677557 -0.046716426 -0.045023594 0.024978444 -0.014209698 0.02878887 0.0127221765
0.049258266 0.03854356 0.015651096 0.047757402 0.043268766 -0.018631017 0.038654413 -9.363954e-05
0.008697647 -0.0155980475 0.00036913046 0.013595612 0.006910517 -0.02267767 0.022412105 0.034195047
0.012307979 -0.011928377 0.0073218266 -0.047608167 -0.008963885 -0.039786533 0.043485034 0.044159308
-0.020684265 -0.02463544 -0.012450911 0.018354833 -0.03402521 0.032036565 -0.013503816 -0.017594028
0.0057473266 -0.02002541 0.041913718 0.023225699 0.048545387 -0.044148963 -0.029216029 -0.04305208
0.005820048 -0.023876047 0.0027828673 0.0151363015 -0.003834008 -0.007891421 0.014793361 0.017019818
0.022160286 -0.047623605 -0.01869377 -0.060232818 0.004965909 0.045116033 -0.026413128 -0.010592753
-0.035851307 -0.031649318 -0.023879444 0.00015961396 -0.00065709086 -0.00021533098 -0.04521397 0.031199334
-0.015684422 -0.017182847 -0.014836374 0.047253992 -0.005395374 0.0018051898 0.03788759 0.041322615
-0.037176855 -0.008562606 -0.0033666326 0.045510612 0.04243806 0.009948302 -0.04129336 0.014077539
0.021918498 0.0056407675 0.01402235 -0.018892348 0.017664446 0.0039831386 -0.011978346 0.04710405
0.021535425 0.024985079 0.02609763 -0.046203822 -0.006161791 -0.017620794 -0.041764088 -0.013982259
00000000: 65ab 5dbc 2763 5dbc 176c 6bbb 22bb e03c
00000010: 7669 9c3c cc27 0ab9 4044 7e3d 7a08 07bd
00000020: e1dd 2bbd 0946 95bc f8f6 0ebd 4121 873a
00000030: 2d51 1dbc dfa2 5c3d 94c8 8abb 4766 80bc
00000040: 8264 263c 804f fbbc b959 3fbd a96a 38bd
00000050: 989f cc3c cbcf 68bc a3d6 eb3c ad70 503c
00000060: 09c3 493d dadf 1d3d ba36 803c 449d 433d
00000070: 973a 313d 13a0 98bc 1754 1e3d 5860 c4b8
00000080: 9380 0e3c f48e 7fbc da87 c139 21c0 5e3c
00000090: 9e71 e23b 85c6 b9bc 9799 b73c 1b10 0c3d
000000a0: 68a7 493c 3d6f 43bc efeb ef3b c800 43bd
000000b0: 42dd 12bc 34f7 22bd 5d1d 323d 64e0 343d
000000c0: 0c72 a9bc 43d0 c9bc e8fe 4bbc e05c 963c
000000d0: 055e 0bbd c638 033d 1c3f 5dbc 5a21 90bc
000000e0: 1254 bc3b 540c a4bc b8ad 2b3d d243 be3c
000000f0: 87d7 463d 8bd5 34bd 7456 efbc 6157 30bd
00000100: 1ab6 be3b b397 c3bc c460 363b 40fe 773c
00000110: fb43 7bbb 054b 01bc da5f 723c 256d 8b3c
00000120: 7d89 b53c f810 43bd ad23 99bc b0b6 76bd
00000130: 10b9 a23b 97cb 383d 5860 d8bc 3a8d 2dbc
00000140: d2d8 12bd b7a2 01bd d39e c3bc 0c5e 2739
00000150: 9f40 2cba 78ca 61b9 4932 39bd bf95 ff3c
00000160: 9e7c 80bc 0bc3 8cbc 4314 73bc 678d 413d
00000170: adcb b0bb 1e9c ec3a 0430 1b3d e741 293d
00000180: c246 18bd 2c4a 0cbc b9a2 5cbb 5669 3a3d
00000190: 88d3 2d3d 34fe 223c 3a23 29bd 7aa5 663c
000001a0: 6c8e b33c 30d6 b83b 00be 653c 20c4 9abc
000001b0: 07b5 903c fd84 823b d340 44bc 2df0 403d
000001c0: 0f6b b03c 82ad cc3c b2ca d53c 3840 3dbd
000001d0: d9e8 c9bb 7c59 90bc d210 2bbd d815 65bc

layer4.weight f4 [84, 120]
-0.05176163 -0.08108728 -0.06370527 -0.078970976 0.13869293 0.06221713 0.1055879 -0.017445214
-0.059129607 -0.108106285 -0.053921774 -0.06905333 0.017813874 -0.07254879 -0.06046984 0.091888085
-0.0018765657 0.050872643 -0.082790785 0.014040761 0.010202188 -0.057508342 0.07201632 0.090581134
-0.00040696666 0.019652925 0.0670695 -0.0432662 -0.023276588 -0.0043355664 0.0006269066 0.03761968
0.1502867 -0.031448543 -0.07521275 0.05682068 0.037347775 -0.04427214 0.045853835 0.012392533
0.0062419414 -0.05330005 0.058473058 -0.07158467 0.03167741 -0.060615588 0.024020122 0.075283974
0.034679018 0.059405137 0.07818804 -0.02738703 -0.07360414 -0.07666067 0.08967379 0.05508646
0.08187227 -0.011861409 -0.07793979 -0.009294811 0.07008287 0.010901163 -0.010228815 -0.0069785425
0.0012284484 0.007906904 0.087788835 0.010787717 0.0029951814 -0.08097404 0.0206336 0.0046539716
-0.039950375 0.10744166 -0.0283661 0.05179906 -0.081554785 0.07521413 -0.08096536 -0.052408107
0.05576468 0.07598784 0.08419233 -0.045919232 0.098268814 -0.0020278816 -0.023967225 -0.08379784
0.08195328 -0.06032183 0.04913167 0.06540168 0.054795746 -0.072851874 -0.065879986 -0.024359021
0.03133146 0.083191305 0.117015496 -0.061409805 0.057713874 -0.04868266 0.11446783 -0.065444745
-0.06276543 0.059178565 -0.014776351 0.017298728 -0.01529303 0.11241311 -0.06732733 -0.06611537
0.062494516 0.024750559 -0.066847846 -0.022758266 0.108011566 0.0061049513 -0.020293208 0.013804684
0.068383776 -0.05724612 0.022702161 -0.003201534 -0.03414834 -0.075503714 0.112639084 0.103336684
-0.009979659 0.027041072 -0.058314323 -0.012121577 0.07314686 -0.032004707 -0.07558726 0.0774957
0.04363765 0.06086852 0.022488784 -0.017872807 0.04728256 -0.07451171 -0.015691755 -0.085130714
-0.06180957 0.044283975 -0.03141141 0.07796842 -0.04158731 0.046860337 -0.07666848 -0.0020157064
-0.052812707 0.044827107 -0.012456204 0.0141357165 0.05713491 -0.07349279 0.01841295 0.08404716
0.02599188 -0.12822697 0.028455565 0.0017744143 -0.08171194 -0.10867814 0.060417894 -0.038577933
0.04593643 0.014065782 -0.01661108 -0.05923509 -0.00035784752 -0.0153595405 -0.021909187 -0.05250654
0.06344495 0.03948727 0.06679044 0.024617089 0.037198998 -0.11394717 0.060917314 -0.08806611
-0.04766223 0.07852264 -0.070446976 0.056105103 -0.120356046 0.10671787 -0.057943948 0.013922661
-0.07787341 0.060837813 0.03909113 0.0635441 -0.053475183 -0.058688845 0.0015084057 0.019240635
-0.079583384 0.07210834 -0.073958755 -0.045924515 -0.08744229 0.012544272 0.05849512 0.032043744
0.012064997 0.0859201 -0.08256204 0.019853927 -0.028977826 0.053081617 -0.045623194 0.02107542
-0.0814059 0.1720811 -0.03343009 -0.012732359 0.048929155 -0.031832315 0.07797742 -0.053010155
0.068534695 0.037502773 -0.06097314 -0.10053982 -0.06661447 -0.16589068 -0.06309261 -0.018250871
-0.026316734 0.046122514 0.03192526 -0.12360637 0.06677909 -0.054805905 0.0776031 -0.10164415
-0.017687362 0.014923221 -0.029973675 0.040473714 -0.059074022 0.052816804 0.068086416 -0.08827881
0.094217524 -0.02055338 -0.010592618 -0.034812007 0.043023564 -0.050873164 -0.081331566 0.08720892
00000000: 0104 54bd 1611 a6bd e977 82bd 89bb a1bd
00000010: 8505 0e3e 64d7 7e3d 783e d83d 44e9 8ebc
00000020: e331 72bd d466 ddbd 14dd 5cbd d56b 8dbd
00000030: 67ee 913c 7694 94bd 39af 77bd d22f bc3d
00000040: 19f7 f5ba d55f 503d 378e a9bd 380b 663c
00000050: 1427 273c de8d 6bbd 4b7d 933d 9a82 b93d
00000060: 245e d5b9 2cff a03c bc5b 893d e637 31bd
00000070: 8bae bebc 5e11 8ebb fd56 243a 1817 1a3d
00000080: c2e4 193e 30d0 00bd 2409 9abd cdbc 683d
00000090: fbf9 183d b456 35bd 3bd1 3b3d 0d0a 4b3c
000000a0: 3389 cc3b 2751 5abd 7281 6f3d fc9a 92bd
000000b0: 2cc0 013d 0d48 78bd d9c5 c43c 7c2e 9a3d
000000c0: 960b 0e3d cd52 733d 0d21 a03d c45a e0bc
000000d0: c4bd 96bd 4500 9dbd e4a6 b73d 57a2 613d
000000e0: a6ac a73d 5b56 42bc e69e 9fbd 4349 18bc
000000f0: 9c87 8f3d cb9a 323c c296 27bc 42ac e4bb
00000100: e303 a13a f68b 013c a2ca b33d f7be 303c
00000110: ce4a 443b b8d5 a5bd cc07 a93c 5880 983b
00000120: 01a3 23bd 5f0a dc3d 0660 e8bc 402b 543d
00000130: 3206 a7bd de09 9a3d 2bd1 a5bd e2a9 56bd
00000140: 8169 643d 839f 9b3d 076d ac3d ce15 3cbd
00000150: 2941 c93d 35e6 04bb ea56 c4bc 349e abbd
00000160: 1fd7 a73d 0614 77bd 4a3e 493d 51f1 853d
00000170: 8171 603d 5d33 95bd 16ec 86bd 928c c7bc
00000180: 6b55 003d 3460 aa3d d2a5 ef3d d988 7bbd
00000190: 6265 6c3d 7867 47bd 1c6e ea3d e507 86bd
000001a0: 298b 80bd 3965 723d 8218 72bc 10b6 8d3c
000001b0: 9e8f 7abc d838 e63d e9e2 89bd 7f67 87bd
000001c0: 40fa 7f3d afc1 ca3c 86e7 88bd 8b6f babc
000001d0: 2b35 dd3d 0b0c c83b f13d a6bc 0b2d 623c
000001e0: cb0c 8c3d e87a 6abd e2f9 b93c d4d0 51bb
000001f0: 21df 0bbd b1a1 9abd 52af e63d 2fa2 d33d
00000200: b981 23bc 3d85 dd3c 00db 6ebd 9499 46bc
00000210: 05ce 953d 5e17 03bd 7ecd 9abd 11b6 9e3d
00000220: 64bd 323d 4551 793d 663a b83c fe69 92bc
00000230: 5cab 413d 9899 98bd ff8b 80bc 0359 aebd
00000240: 082c 7dbd 1d63 353d 40a9 00bd e8ad 9f3d
00000250: 7557 2abd a0f0 3f3d 5d04 9dbd f119 04bb
00000260: 2352 58bd a19c 373d 1b15 4cbc 7e99 673c
00000270: 4c06 6a3d 6383 96bd c1d6 963c eb20 ac3d
00000280: ecec d43c ee4d 03be a51b e93c 7793 e83a
00000290: 9758 a7bd a592 debd c178 773d e503 1ebd
000002a0: d727 3c3d 2a74 663c f613 88bc 7ea0 72bd
000002b0: 7b9d bbb9 95a6 7bbc e57a b3bc 1911 57bd
000002c0: 6def 813d 67bd 213d 6dc9 883d c7a9 c93c
000002d0: fa5d 183d 225d e9bd 6f84 793d 015c b4bd
000002e0: 7839 43bd 7ad0 a03d 8146 90bd 77ce 653d
000002f0: 3b7d f6bd e68e da3d a256 6dbd df1b 643c
00000300: 187c 9fbd 1231 793d 051e 203d 6923 823d
00000310: cb08 5bbd b763 70bd b2b5 c53a 899e 9d3c
00000320: 9dfc a2bd 8aad 933d b077 97bd 581b 3cbd
00000330: f114 b3bd 7d86 4d3c 9498 6f3d 4d40 033d
00000340: 44ac 453c e1f6 af3d 4916 a9bd b4a4 a23c
00000350: e862 edbc 1c6c 593d 63df 3abd 5ca6 ac3c
00000360: 23b8 a6bd 0736 303e fded 08bd 629b 50bc
00000370: f069 483d 9a62 02bd a0b2 9f3d 2d21 59bd
00000380: eb5b 8c3d 829c 193d f9be 79bd d2e7 cdbd
00000390: 2b6d 88bd 3fdf 29be b336 81bd da82 95bc
000003a0: 3196 d7bc f6ea 3c3d 10c4 023d 5625 fdbd
000003b0: 7ac3 883d 287c 60bd 60ee 9e3d cf2a d0bd
000003c0: 16e5 90bc 8780 743c 5a8b f5bc c4c7 253d
000003d0: 9af7 71bd 6f56 583d e470 8b3d 85cb b4bd
000003e0: 1ef5 c03d 905f a8bc a98c 2dbc 0997 0ebd
000003f0: 7a39 303d 6160 50bd 2a91 a6bd 979a b23d

layer4.bias f4 [84]
0.054373834 0.02209833 0.019682817 0.048414715 0.08357576 -0.059869155 0.015385788 -0.04748617
0.036174178 0.049257684 0.014809783 0.08273973 -0.059473746 0.04667658 0.06338614 0.018340021
0.08528807 0.006430042 0.06694858 -0.07344858 -0.008407127 0.08485173 -0.002911317 0.052094825
0.08615776 0.03528314 0.035315633 0.027714774 -0.0098113315 0.03962354 -0.0039310423 0.018551726
-0.049614854 0.06259636 -0.08107196 -0.054375976 0.09226306 0.040807072 0.018268308 -0.0011676266
0.023464805 0.058543157 0.07947329 -0.015515382 -0.0038833132 0.019716987 0.04917115 -0.0033871643
-0.044867843 0.065507606 -0.0042445203 -0.06377111 -0.045649264 0.06694762 0.048717625 -0.027792068
0.047520407 -0.05085906 0.08878991 -0.00041146265 -0.04248148 0.004638246 0.00435613 0.06127718
0.08360348 -0.056649476 -0.081028484 0.011078487 0.027995747 -0.053789258 0.032020222 -0.0030716192
0.09977272 -0.08202985 -0.01711066 0.067844324 0.079822466 0.098518915 -0.092363454 0.06287762
-0.0065330337 0.024962014 0.018607983 0.04941115
00000000: 19b7 5e3d 8f07 b53c dc3d a13c 824e 463d
00000010: c529 ab3d 5c39 75bd ac14 7c3c dc80 42bd
00000020: 602b 143d 6dc2 493d bba4 723c 7373 a93d
00000030: be9a 73bd f12f 3f3d 98d0 813d d03d 963c
00000040: 83ab ae3d 1ab3 d23b 561c 893d 366c 96bd
00000050: 0cbe 09bc bec6 ad3d cbcb 3ebb 6261 553d
00000060: 7b73 b03d 0e85 103d 20a7 103d 180a e33c
00000070: b5bf 20bc 4b4c 223d f9cf 80bb caf9 973c
00000080: f238 4bbd 8532 803d 0e09 a6bd 58b9 5ebd
00000090: 6af4 bc3d 5125 273d 6ba7 953c 0c0b 99ba
000000a0: 4339 c03c f3ca 6f3d e4c2 a23d 3b34 7ebc
000000b0: 2f7f 7ebb 8585 a13c b067 493d 30fb 5dbb
000000c0: 58c7 37bd da28 863d 9e15 8bbb 6d9a 82bd
000000d0: b9fa 3abd d51b 893d 228c 473d 31ac e3bc
000000e0: c2a4 423d 9751 50bd 7cd7 b53d 95b9 d7b9
000000f0: 0f01 2ebd 6dfc 973b debd 8e3b c8fd 7a3d
00000100: 4d38 ab3d 4809 68bd 43f2 a5bd 8b82 353c
00000110: 5657 e53c 2052 5cbd a327 033d 384d 49bb
00000120: a455 cc3d 44ff a7bd a82b 8cbc f7f1 8a3d
00000130: f679 a33d 49c4 c93d 0d29 bdbd fbc5 803d
00000140: 0f13 d6bb 237d cc3c c56f 983c 5963 4a3d

layer5.weight f4 [10, 84]
-0.12403726 0.016830513 -0.10817159 0.122028686 0.078270264 -0.03837369 -0.04831334 -0.10027115
0.18280187 -0.15804823 0.060205873 0.06385949 0.03447527 -0.112970866 -0.08420304 0.10467806
-0.06322348 0.05311522 0.096963905 -0.027728662 0.051659893 0.15632907 -0.019537184 0.0612257
0.017732901 -0.03972835 0.04071873 0.019327845 0.033132575 0.0042146654 0.007769102 0.09609906
-0.028278844 -0.022906091 -0.07006758 -0.055964544 0.13541673 0.087577075 -0.05755753 0.0476883
-0.10560029 0.032494083 -0.09249827 -0.06932347 0.10230651 0.11166025 0.094414495 -0.026620694
0.009896202 0.030916464 -0.07614094 -0.09746256 -0.048996132 -0.20681627 -0.13185248 -0.082827
0.078108445 0.037605915 0.103995904 -0.10337239 -0.080725595 0.012890539 -0.0584549 0.08161675
0.046780016 0.12483917 0.0642823 -0.038774263 -0.08145477 -0.08874137 -0.1540624 0.070514895
0.043710988 -0.085204825 0.059589967 -0.15067339 -0.07283668 -0.11215543 0.17199914 -0.044382047
-0.039323103 0.037273258 0.050206527 -0.054641638 0.061433237 -0.075454146 -0.01207294 0.05122324
-0.11130823 -0.06436844 -0.005076394 -0.065351844 -0.18077774 0.13496372 0.022357449 -0.07892627
0.13125864 0.105555914 0.03743444 -0.10630832 -0.0318037 -0.083911575 0.0606844 -0.08507615
-0.18140936 -0.104796275 -0.05993819 0.015148727 0.08457678 0.024863632 -0.117138825 -0.002121545
0.088643715 0.0066946 0.0041191187 0.070278026 0.05861502 -0.1048617 0.10645823 0.047178265
0.14697482 0.09244116 -0.004735329 -0.11542748 -0.07093487 0.10264648 -0.05321813 0.024934022
-0.14063372 -0.121545814 0.10339851 0.06780435 -0.117339455 -0.01717976 0.11448211 -0.028505582
-0.05174121 0.071538076 -0.12573653 -0.04246465 -0.089991055 0.11306559 -0.012754463 -0.03662672
-0.103572585 -0.047402572 0.030700456 -0.0077208653 0.03564563 0.04111692 -0.10380907 0.043927036
0.086501285 -0.068081066 -0.016398743 0.11001568 -0.115241595 0.06521778 -0.10974826 -0.19454439
-0.11198221 -0.027025685 -0.14887445 0.015395249 0.072851636 0.06587578 0.15404113 -0.010572322
-0.089100115 -0.04220362 0.1111562 0.028350053 0.09613201 0.094895914 -0.06758941 0.052970428
-0.057173017 0.07301177 0.039341588 0.0014819024 0.059901826 -0.010156129 -0.07947257 -0.14250724
0.0050202883 -0.022772431 -0.13643149 -0.10924345 0.035584096 0.1642832 0.03927198 -0.0046137767
-0.002477814 -0.05898494 0.0067722937 -0.009901933 0.0177278 -0.017947262 -0.07382771 -0.17217374
-0.10719602 -0.060469057 -0.17536712 0.00012774432 0.04576689 -0.115013875 0.05699307 0.020444592
-0.09326588 -0.058459986 -0.06695573 -0.044187497 0.06572756 -0.12759948 0.114453554 -0.027103081
0.104172975 0.115019865 -0.18882439 0.07336796 0.06956835 -0.11919795 -0.16478541 0.02411986
0.079382986 -0.15989292 -0.034279194 0.102496 -0.019561458 -0.019038245 0.16794707 0.13360228
-0.008202034 0.12399895 -0.005657007 0.0044351364 -0.051858827 0.04331473 0.16968533 -0.18055505
0.12021015 0.02858092 -0.13329542 0.11223902 -0.08214571 0.17518269 -0.19330488 -0.0875223
0.06341173 -0.045295335 9.538285e-05 0.04320406 -0.101711534 -0.05747305 -0.10559874 -0.03588147
00000000: 3f07 febd 25e0 893c 1189 ddbd 2dea f93d
00000010: 294c a03d bb2d 1dbd 35e4 45bd f65a cdbd
00000020: 6a30 3b3e 65d7 21be 6f9a 763d c4c8 823d
00000030: f135 0d3d 455d e7bd a572 acbd 7361 d63d
00000040: 507b 81bd 588f 593d 0395 c63d 3827 e3bc
00000050: 5399 533d ba14 203e 720c a0bc cdc7 7a3d
00000060: 9744 913c 32ba 22bd afc8 263d 6e55 9e3c
00000070: 06b6 073d 2d1b 8a3b f493 fe3b 95cf c43d
00000080: 09a9 e7bc 8ea5 bbbc 977f 8fbd 143b 65bd
00000090: afaa 0a3e 9c5b b33d 72c1 6bbd cf54 433d
000000a0: f744 d8bd 8418 053d bc6f bdbd 77f9 8dbd
000000b0: 1386 d13d 21ae e43d 635c c13d a413 dabc
000000c0: ae23 223c 8644 fd3c c8ef 9bbd 739a c7bd
000000d0: 2bb0 48bd a5c7 53be 5604 07be 34a1 a9bd
000000e0: 52f7 9f3d a908 1a3d cefb d43d e7b4 d3bd
000000f0: 7653 a5bd d732 533c 686e 6fbd af26 a73d
00000100: 679c 3f3d aeab ff3d 70a6 833d c3d1 1ebd
00000110: c2d1 a6bd 09be b5bd 89c2 1dbe 1d6a 903d
00000120: 4b0a 333d de7f aebd 9c14 743d 204a 1abe
00000130: 662b 95bd bfb1 e5bd 8b20 303e f3c9 35bd
00000140: 4311 21bd d8ab 183d 5ca5 4d3d e9cf 5fbd
00000150: 6ba1 7b3d b487 9abd 95cd 45bc 76cf 513d
00000160: 92f5 e3bd 9ad3 83bd e157 a6bb 30d7 85bd
00000170: cd1d 39be ee33 0a3e f826 b73c 19a4 a1bd
00000180: aa68 063e b32d d83d db54 193d 2db8 d9bd
00000190: 9944 02bd d5d9 abbd 3590 783d 683c aebd
000001a0: 60c3 39be 6e9f d6bd bf81 75bd 5e32 783c
000001b0: 9736 ad3d d1ae cb3c 7be6 efbd 9e09 0bbb
000001c0: d68a b53d 605e db3b acf9 863b eded 8f3d
000001d0: 4e16 703d bbc1 d6bd c606 da3d ff3d 413d
000001e0: 9180 163e ca51 bd3d d22a 9bbb 3e65 ecbd
000001f0: 4d46 91bd 5138 d23d 41fb 59bd 6f42 cc3c
00000200: 4902 10be 03ed f8bd 99c2 d33d 02dd 8a3d
00000210: ab4f f0bd 91bc 8cbc 9975 ea3d 8a84 e9bc
00000220: 97ee 53bd 8e82 923d 14c1 00be 6aef 2dbd
00000230: 3b4d b8bd ef8e e73d 18f8 50bc e605 16bd
00000240: dd1d d4bd 3329 42bd 867f fb3c 50ff fcbb
00000250: 2701 123d 376a 283d da99 d4bd d6ec 333d
00000260: 9627 b13d 166e 8bbd a856 86bc e74f e13d
00000270: c903 ecbd e690 853d b2c3 e0bd a536 47be
00000280: ee56 e5bd f864 ddbc 8b72 18be 5b3c 7c3c
00000290: 3d33 953d e2e9 863d f5bc 1d3e 8837 2dbc
000002a0: 1f7a b6bd b4dd 2cbd dda5 e33d 5f3e e83c
000002b0: dce0 c43d ca58 c23d 516c 8abd 85f7 583d
000002c0: 412e 6abd 3287 953d a524 213d 653c c23a
000002d0: 9e5b 753d e465 26bc 84c2 a2bd 6bed 11be
000002e0: 3b81 a43b 408d babc b2b4 0bbe 08bb dfbd
000002f0: a1c0 113d db39 283e a8db 203d 2a2f 97bb
00000300: d262 22bb 319a 71bd 1eea dd3b b83b 22bc
00000310: e439 913c 2306 93bc fb32 97bd 504e 30be
00000320: 9689 dbbd 67ae 77bd 7093 33be 1bf3 0539
00000330: 1076 3b3d 658c ebbd 9171 693d 6b7b a73c
00000340: 2f02 bfbd bd73 6fbd 1620 89bd f3fd 34bd
00000350: 2c9c 863d 70a9 02be a066 ea3d 4807 debc
00000360: a458 d53d 898f eb3d 2e5b 41be f141 963d
00000370: da79 8e3d 0e1e f4bd 82bd 28be 0397 c53c
00000380: 8c93 a23d f8ba 23be 5768 0cbd 6ce9 d13d
00000390: 5a3f a0bc 18f6 9bbc 51fa 2b3e 09cf 083e
000003a0: d361 06bc 29f3 fd3d 6a5e b9bb 9f54 913b
000003b0: ec69 54bd c96a 313d fec1 2d3e 6ce3 38be
000003c0: bd30 f63d 8922 ea3c 987e 08be 92dd e53d
000003d0: 033c a8bd 1763 333e b7f1 45be e43e b3bd
000003e0: 02de 813d 9a87 39bd 4708 c838 bef6 303d
000003f0: 234e d0bd dc68 6bbd 2744 d8bd 73f8 12bd

layer5.bias f4 [10]
-0.085491404 -0.010837666 -0.096103914 0.016135411 -0.07571748 -0.023129063 0.026784906 0.09035642
-0.10304547 0.030142592
00000000: 1e16 afbd 7790 31bc 21d2 c4bd 692e 843c
00000010: c411 9bbd 2979 bdbc 056c db3c c90c b93d
00000020: 8109 d3bd 99ed f63c
